finalmodel_checkpoint_bn_False_maxt_1000_eps2_0.1_eps1_1.pth (torch_old, 28391 bytes, 6 tensors)

fc1.weight f4 [64, 37]
000000 67 32 d3 3d e4 2a f4 bd d6 49 34 be 9e 92 83 bd
       0.10312348 -0.11922243 -0.17606291 -0.064244494
000010 be 98 2c be 1b 51 6b bd ce c6 d1 3d 40 24 5d 3e
       -0.16855142 -0.057450395 0.10242997 0.2159586
000020 58 b5 a1 be 4d 52 7a bd 1f da e6 bb a8 31 8a bd
       -0.31583667 -0.061113644 -0.007045045 -0.067477524
000030 3c dc 48 be bf 29 9c bd c2 72 62 be 57 0f 32 3d
       -0.19615263 -0.0762515 -0.22114089 0.04347166
000040 1c ca 6c bc c7 f2 e9 3d 1e 8d 10 be bd fd 8d 3b
       -0.0144524835 0.11423259 -0.14116332 0.0043332265
000050 2e 0a 3a 3d 3d d4 d5 3d 2b ca 81 3e af fd 00 be
       0.045419864 0.10440872 0.25349554 -0.12596773
000060 55 76 61 bc 25 18 3c bd 74 f8 52 3e 2b 00 26 bd
       -0.013761123 -0.045921464 0.2060259 -0.040527504
000070 70 3a 8f be 89 49 c9 3d 12 99 02 bd 33 a1 11 3e
       -0.27974272 0.09828479 -0.03188426 0.14221649
000080 83 61 32 3b 5e 77 98 be a9 0d 82 be 55 22 47 bd
       0.0027218766 -0.2977857 -0.25401047 -0.048616726
000090 6c db 7f bc 33 bd 26 3d b6 52 33 3e 8b 22 42 3d
       -0.015616279 0.04070778 0.1751202 0.047396224
0000a0 68 ea 9b 3c 9b d3 29 be 03 e7 d9 3d 1b 9f 58 be
       0.019032672 -0.16584627 0.10639765 -0.21154444
0000b0 e1 5c 28 be 7e e6 31 be d9 7c 67 bf a0 76 21 3d
       -0.1644168 -0.17373082 -0.9042488 0.03941977
0000c0 7a ff 82 bd 37 fd 43 3d 87 64 43 3e 12 a0 89 3e
       -0.063963845 0.047848906 0.19081317 0.26879936
0000d0 fb 46 d4 3d e2 2b d6 bc 73 c6 a4 3b 24 06 89 3b
       0.10365101 -0.026143972 0.00502854 0.00418164
0000e0 f2 e8 c3 bc 9f f7 a8 bd cb 4f 91 bd c8 28 11 be
       -0.023914788 -0.08250355 -0.070952974 -0.14175713
0000f0 b8 8c 0d bd d3 6e 1a 3d ab f0 2c be b1 14 b2 3d
       -0.034558028 0.037703346 -0.16888683 0.08695353
000100 e8 b4 28 3e 5f 2d 0f 3e e2 68 f0 3d 36 68 8d 3d
       0.1647526 0.13982151 0.11738755 0.06904642
000110 9c ae 2d 3d 05 83 91 3d cd 2f e5 3d 63 4a 45 3e
       0.04240285 0.07105068 0.11190758 0.19266658
000120 10 2c a3 3c 9d 98 6c 3c 82 00 03 3e 61 f8 6c 3e
       0.019918472 0.014440683 0.12793162 0.23141624
000130 12 73 97 3d 10 4f cf 3d 9a 6e e4 ba 02 96 af be
       0.07394995 0.10122502 -0.0017427981 -0.34294134
000140 34 a2 33 3e 3a d0 82 3e c6 ad 26 3e 26 10 ad 3d
       0.17542344 0.2554949 0.16277227 0.08450346
000150 1e b1 41 b9 9b 69 2b 3d 63 8e a0 3d 84 cd 92 3d
       -0.00018471896 0.04184876 0.07839658 0.07168105
000160 4a a0 b9 3d 1f 74 36 bd e6 c0 89 3d a3 4a 63 3d
       0.09063776 -0.044544335 0.067262456 0.0554911
000170 13 73 4e 3e 9b 4d 1e 3f d5 c7 d1 bd 88 a6 d4 38
       0.20161085 0.61837167 -0.10243193 0.000101399666
000180 27 16 a1 3d 70 e4 3a 3d d7 a9 0f 3e b7 d2 8e 3c
       0.07865553 0.04562801 0.14029633 0.017434461
000190 6e e6 94 3d 89 00 54 3e 9b 31 51 bd ee 93 99 be
       0.072705135 0.20703329 -0.051072698 -0.29995674
0001a0 a6 b2 e6 bd b3 77 4d 3b 30 35 b5 bc 18 48 f5 3a
       -0.11264543 0.0031351864 -0.022120088 0.0018713502
0001b0 7b d6 c4 3c e8 05 25 3d c5 01 2e bb 5e b3 4e 3e
       0.024028054 0.040288836 -0.0026551348 0.2018561
0001c0 f0 b6 71 be 3f 3c 10 3e 16 c0 34 bc 59 dc 9b be
       -0.23604941 0.14085482 -0.011032125 -0.3044155
0001d0 26 98 10 be b9 82 c7 bd 4d 93 6d 3e 9e 54 b3 3d
       -0.1412054 -0.0974173 0.23200722 0.08756374
0001e0 06 6b d7 be f6 4a cb 3c a8 4e ca bd ae 24 26 3e
       -0.4207384 0.024816018 -0.09878284 0.1622493
0001f0 f8 b7 90 bd b6 07 7f 3d b1 b0 8f bd e3 fa 64 3c
       -0.07066339 0.062263213 -0.07016123 0.013975832
000200 e7 96 8d bd 59 a3 a3 bd 91 e0 64 3c b8 e3 cf 3d
       -0.06913548 -0.079901405 0.013969556 0.10150856
000210 c7 e9 d8 3d 81 5c c2 3c d6 bf aa bd 01 c2 92 bd
       0.105914645 0.02372575 -0.08337371 -0.071659096
000220 38 60 de 3d 95 b3 11 bd d2 19 01 3d 99 f7 24 bd
       0.10858196 -0.035571653 0.031518765 -0.04027519
000230 bc 4a a8 be d1 a2 21 3e 56 f0 4b 3e 0c f6 cf 3d
       -0.32869518 0.15784766 0.199159 0.101543516
000240 90 36 92 be 5c 98 0d bf 0e 98 dc 3d 21 2b 61 3b
       -0.28557253 -0.55310607 0.1077119 0.0034357982
000250 e7 55 26 be c5 8e 2d be 04 4e ea bd d7 0c d1 be
       -0.16243707 -0.16948994 -0.114406615 -0.4083011
000260 7c f7 1d 3e fb ac 97 3b df c7 00 3e 88 4e 54 be
       0.15426439 0.004628775 0.12576245 -0.20733082
000270 96 25 8e 3c fe 5d 8b be 61 b8 60 bd 94 38 31 be
       0.017351907 -0.27220148 -0.054863337 -0.17306739
000280 27 a5 7a bd f2 04 5c be 35 4d cc be 85 51 c5 bd
       -0.061192658 -0.21486261 -0.39902654 -0.09634689
000290 41 17 e4 bd 1f 49 fe bd 17 97 84 bd c0 71 f9 3d
       -0.11137248 -0.124162905 -0.064741306 0.12179899
0002a0 0a 4a 2a bd 09 4d fe bd ff 9a 98 bd a4 83 83 bd
       -0.041574515 -0.12417037 -0.07451438 -0.06421593
0002b0 8f e9 39 be d6 3e ac 3c 80 fd 18 be 8e 43 0a 3e
       -0.18155502 0.021026056 -0.14940453 0.13502333
0002c0 43 e9 55 be 81 c7 f4 bd f5 e6 08 3e c9 5f b7 be
       -0.20889764 -0.11952115 0.13369353 -0.35815266
0002d0 97 37 95 3d 39 a4 2f be ed 52 49 bd a6 48 71 3d
       0.072859935 -0.1715249 -0.04915135 0.058907174
0002e0 35 d5 60 3d 84 c3 9f bd 3c 60 e4 3b 75 ea b0 bd
       0.05489083 -0.078009635 0.00696948 -0.08638469
0002f0 62 ce 3b 3d c1 fd e3 3d 4a 3e 0b 3e 9a a4 0c 3e
       0.04585112 0.11132384 0.1359798 0.13734666
000300 00 dc 10 be 84 e7 94 bd 27 09 23 bf 68 f1 fb bd
       -0.14146423 -0.072707206 -0.6368584 -0.12301904
000310 4e ac 4b 3d d2 1d 9f bd 17 28 83 bd 90 b3 a6 bd
       0.04972487 -0.0776936 -0.06404131 -0.081397176
000320 1f 12 00 bd 4f 51 8e 3d ca 0e 47 be 1d eb 67 3d
       -0.03126728 0.06949102 -0.19439235 0.056620706
000330 e8 e6 51 bd f2 3d e2 bc 5c b6 98 3d d1 23 39 3e
       -0.0512456 -0.027617428 0.07456657 0.18080069
000340 11 5f 72 3c 58 7e 29 3d e0 ce e2 bd 47 f5 85 bd
       0.014793173 0.041380256 -0.110746145 -0.065409236
000350 6d 29 36 3e ff 23 33 3d 1c 4f a0 3e 80 9a cd bd
       0.1778924 0.0437355 0.31310356 -0.10039234
000360 a0 4e bf 3d 8e 22 12 be 4c e8 1c 3e f9 28 cf be
       0.093411684 -0.14270994 0.15322989 -0.40460947
000370 25 aa be bb ff 2a 68 3b 79 67 c7 bd 2e 19 b7 bd
       -0.0058186227 0.0035426018 -0.09736533 -0.089403495
000380 c3 12 2a 3d 23 2f b2 3d b1 7c 53 bd fd 35 73 bd
       0.0415218 0.08700397 -0.051632587 -0.05937766
000390 38 22 86 bd c8 24 50 3d e6 a0 34 be af 2d cf 3e
       -0.065494955 0.050816327 -0.17639503 0.4046454
0003a0 e1 0f bf 3d 8b 42 d0 3d 89 90 32 3b fd 78 a6 bd
       0.093292005 0.10168942 0.0027246794 -0.081285454
0003b0 79 71 23 3e 7f 7e 5d be e6 39 20 be d7 68 8b b7
       0.15961255 -0.21630286 -0.15647087 -1.6618911e-05
0003c0 13 be 5c 3e 75 13 98 3d 00 98 1b bd f4 88 91 bd
       0.21556883 0.07425586 -0.037986755 -0.071062
0003d0 a4 ee 05 3d 89 8a 53 bd 52 d7 6b 3d 8b 12 40 be
       0.03269829 -0.05164579 0.057578392 -0.18757074
0003e0 91 81 e2 bd 9f 94 7e 3d 08 72 8a bd 46 6a 8c 3d
       -0.11059869 0.062153455 -0.06760031 0.068562075
0003f0 93 43 ed 3d 43 45 e9 bd 67 79 07 be fa 1d ba 3c
       0.115851544 -0.11390164 -0.13229905 0.022719372

fc1.bias f4 [64]
000000 07 c6 0d 3e a0 23 1d bd 75 4d ab bd 07 10 d7 bc
       0.13845073 -0.038364053 -0.08364383 -0.02625276
000010 38 d2 d5 3d 0b eb 86 bd b4 69 d9 bd 48 96 cb 3d
       0.10440487 -0.065878 -0.106158644 0.09940773
000020 c6 6c b7 3c 7c c6 76 be 40 21 4b 3e be 54 3b 3e
       0.022390734 -0.24099153 0.19836903 0.18294045
000030 fd 90 36 3e c8 b2 5b 3e b3 38 4c 3d e8 02 72 bd
       0.17828746 0.21454918 0.04985876 -0.059084803
000040 b6 b7 46 ba 3e e6 18 3d ab b5 b2 3c 98 db 4d be
       -0.00075804756 0.03732895 0.021815142 -0.201033
000050 f5 d4 8c bd e7 fb 4e 3d 14 54 00 bc eb 3f 79 bd
       -0.06876556 0.0505332 -0.007832546 -0.060851973
000060 fa 0f f0 bd 50 62 68 3c 5a 99 f2 bd 44 51 4f be
       -0.11721797 0.014183596 -0.11845656 -0.20245844
000070 6b 97 d4 3d 0e 68 04 3e 04 8a cd bd 68 dd 2b be
       0.10380443 0.12930319 -0.1003609 -0.16783679
000080 95 6e f8 3d cf d5 8a 3c 94 c0 d7 bd ee 80 a9 3c
       0.12130467 0.016947655 -0.10534778 0.020691361
000090 fc 1f 41 bd 8b 44 52 3d 04 56 1d bc f8 42 31 be
       -0.047149643 0.0513349 -0.009603027 -0.17310703
0000a0 aa b8 65 bd 09 26 14 3c aa a2 2a be 04 9c 0a 3e
       -0.056084312 0.009042271 -0.16663614 0.13536078
0000b0 98 36 27 3d 76 62 71 bd 3d 28 d0 3d 6f 37 24 be
       0.04082355 -0.05893179 0.10163925 -0.16036771
0000c0 69 90 f3 bd c8 ad eb 3c 5c f2 17 be 52 b8 f8 3d
       -0.118927784 0.028769389 -0.14838547 0.12144531
0000d0 fb 7f 00 bd e4 72 35 bd 9e f0 67 be 55 2f f6 3c
       -0.03137205 -0.04429902 -0.22650382 0.030051867
0000e0 62 46 cb 3d 0a 92 f2 bd 0b 9d 17 be 78 d0 50 bd
       0.09925534 -0.11844261 -0.14806001 -0.05098006
0000f0 ba 74 7e bc d0 7e 5e 3d 11 85 25 3e c3 b8 dc 3d
       -0.0155307595 0.054320157 0.16164042 0.10777428

fc2.weight f4 [64, 64]
000000 66 2b 28 bd 70 6f 12 3e b9 c2 39 be 9f 82 10 3e
       -0.041057013 0.14300323 -0.18140687 0.14112328
000010 0c 39 ed 3d a9 d4 5f 3d 77 97 79 3b ee ec 23 be
       0.115831465 0.054646168 0.0038084665 -0.1600835
000020 79 01 94 bd bf dd 50 3d a3 c3 6d bd da 5d 69 3e
       -0.072268434 0.050992724 -0.0580479 0.22789708
000030 63 79 07 be 7d e0 0a 3e fa 68 c9 bd 01 00 26 bd
       -0.13229899 0.13562198 -0.09834476 -0.040527347
000040 80 3e 2f bd 40 a4 ad bd 47 22 d2 39 07 c9 8e 3d
       -0.042784214 -0.08478594 0.0004007986 0.06971937
000050 d5 d3 30 3e 77 b3 6e bd 14 53 1d 3d 94 8f 4f be
       0.17268308 -0.05827662 0.038409308 -0.20269614
000060 d6 6b 15 be c0 c9 2b be 43 21 14 3e 14 fa 6b 3d
       -0.14591917 -0.1677618 0.14465813 0.05761154
000070 59 07 55 3d f6 89 36 3e 24 d6 3c 3d 94 a4 a9 3c
       0.05200896 0.17826065 0.046102658 0.02070836
000080 c2 c1 a1 3d e7 54 f5 3d ab 95 d2 3c fc e8 03 bd
       0.078982845 0.119790845 0.025706133 -0.032204613
000090 12 45 08 be 6d 31 bb 3e 09 0b 71 be b4 03 a7 bd
       -0.13307598 0.36561146 -0.23539366 -0.08155003
0000a0 07 e6 e5 be 82 65 7f 3d f9 8e 81 3e b2 c8 27 be
       -0.4490206 0.062352665 0.25304392 -0.16385153
0000b0 cf 37 8b 3d 6d af 9c bd 75 66 2b be aa cf cb 3c
       0.06797754 -0.07650647 -0.16738303 0.024879295
0000c0 d2 17 d4 3d ce 94 53 bd e3 83 cc bd ee 67 06 3e
       0.10356106 -0.051655583 -0.09986093 0.13125584
0000d0 aa 1f 9e bd fa 3d 00 bf 5a 4c c2 3d ea e8 02 be
       -0.07720883 -0.5009457 0.09487219 -0.12784162
0000e0 ff d9 65 be 97 44 5c bd ac 25 a1 bd 01 84 c5 bc
       -0.2244644 -0.05377635 -0.078685135 -0.024110796
0000f0 3f 0c 55 be 14 41 5d 3e 17 12 71 be b5 0f b3 bd
       -0.20805453 0.21606857 -0.23542057 -0.0874323
000100 e0 30 94 bc 6b d0 3e 3e 9d 5a 31 be 52 4c b9 3d
       -0.018089712 0.18634193 -0.17319722 0.0904776
000110 89 7c 9f 3a 5e ae dc 3d f2 70 f4 be 0f 1e 9c bd
       0.0012167852 0.107754454 -0.4774242 -0.07622921
000120 1c f2 ee bd 93 10 f6 bd f5 dd 3d 3c 83 f1 a1 3e
       -0.116672724 -0.1201488 0.011588563 0.3162957
000130 d2 1a bd bd fb 1d 70 3d 92 ac fa bd cc 42 b6 3d
       -0.09233631 0.05862234 -0.122399464 0.08899459
000140 cd 12 72 3c ec 57 59 bd 19 eb 69 be f1 b6 0a bd
       0.01477499 -0.053062364 -0.22843589 -0.033865873
000150 cf ae d2 3d e7 af 0e bd bd 41 14 bd 8f a1 e8 bd
       0.10287248 -0.034835722 -0.036195505 -0.1135894
000160 20 b6 93 bd 40 8f 59 3d 33 fe 83 bd b1 22 3f be
       -0.07212472 0.05311513 -0.06444969 -0.18665577
000170 b9 9a ce 3d a6 e0 ad bc f9 01 d8 bc bd 5c 01 be
       0.10088105 -0.021225285 -0.026368128 -0.12633033
000180 fa 60 a2 be 60 25 3a 3c d8 9f af be 6c 95 1c be
       -0.31714612 0.01136145 -0.3430164 -0.15291375
000190 7a 68 0c 3e 2e fd 99 3e c0 b0 18 3e 64 82 19 be
       0.1371173 0.30075973 0.14911175 -0.14991146
0001a0 48 66 4e be 34 f2 a0 3c 63 76 93 3e cd 7f 01 bd
       -0.20156205 0.019646741 0.2880126 -0.03161602
0001b0 81 c6 99 3c 91 7c e6 bd 4e f3 49 be 6a 5e 00 bc
       0.018771412 -0.11254228 -0.1972172 -0.00783501
0001c0 36 b7 46 be f2 ef 1c 3e 85 81 dc bd 99 af 10 3e
       -0.19405827 0.15325907 -0.107668914 0.14129485
0001d0 9d 90 57 be 57 37 b3 bd 07 ad 47 be 6a 53 95 bd
       -0.2105126 -0.087507896 -0.19499598 -0.072913006
0001e0 20 03 b1 bc 1c 66 00 be 5a b4 c0 3d 29 ba d1 bd
       -0.021607935 -0.12538952 0.09409399 -0.10240585
0001f0 83 fc 87 be d9 66 df b9 3b 2d c8 3d 7d 57 86 bd
       -0.2655984 -0.00042610502 0.09774252 -0.06559656
000200 eb 63 e4 3c 32 8e 8e bb 5f 30 5a 3d d2 bb 5a be
       0.027879676 -0.004350447 0.053268787 -0.2136071
000210 75 bd 83 bd 30 e2 bb 3c 15 8f 9b bd d1 64 37 3e
       -0.064326204 0.022935003 -0.0759565 0.17909552
000220 a9 8a b1 3d 9c 7e bd bd 7f dc 46 3d 56 7f ca be
       0.086690255 -0.092526644 0.048550125 -0.39550275
000230 bb e9 17 bd fe 09 6d 3d 52 f9 4d 3b 37 25 95 be
       -0.037088137 0.057870857 0.0031429124 -0.29129955
000240 3e 26 17 3d 5a 8a 22 bd b8 08 82 bd c2 25 c6 be
       0.036901705 -0.039682724 -0.06349319 -0.38700682
000250 bf 4c 9f be 6e 0e 16 bd 7a 30 f7 be 0a 7b 1b be
       -0.3111324 -0.036634855 -0.48279172 -0.15183654
000260 c5 7a 05 be 0e 96 9d 3d 27 8c bd 3c bc d8 39 bd
       -0.13035114 0.07694636 0.023138119 -0.04537271
000270 3b e6 bb be d8 19 a8 be 52 fc a4 bd b4 c1 ab 3d
       -0.3669909 -0.32832217 -0.08055939 0.08386555
000280 9e 39 e9 bd 68 f4 56 3d 1e 22 22 3b 50 72 0f 3c
       -0.11387943 0.052479178 0.0024739574 0.008755282
000290 09 a9 e8 3d 41 a2 67 be b8 5a a1 3e 66 89 17 be
       0.11360366 -0.22620489 0.31514525 -0.14798507
0002a0 82 96 65 3e 51 98 c3 bb 70 a6 52 be 5f 7d 41 bd
       0.22420695 -0.0059690853 -0.20571303 -0.047238704
0002b0 92 25 19 bd 29 b8 04 bd ab 51 b7 3d 40 d8 b1 bd
       -0.037389345 -0.03240219 0.08951124 -0.086838245
0002c0 1a 0e 2d be 70 08 4a be 6c 92 02 be e2 07 c1 3c
       -0.1689991 -0.19729781 -0.12751168 0.02356333
0002d0 1a b9 e7 be 72 05 ba be ee 95 88 bd 83 71 bd bd
       -0.4525841 -0.3633228 -0.06669222 -0.09250166
0002e0 28 bc a9 bd 9a 29 d9 bd 32 0e 42 3d b6 2e bc 3d
       -0.08287841 -0.10603638 0.04737682 0.09188597
0002f0 7f d6 01 3f a5 8f f7 bd 00 35 1a 3d 19 95 c0 bd
       0.5071792 -0.12087945 0.0376482 -0.09403438
000300 48 88 e6 ba b3 ba 79 bd 71 be d0 3d e7 fa 45 be
       -0.0017588222 -0.060969066 0.10192574 -0.19333993
000310 67 00 79 3b 96 12 29 be c3 95 12 be 0b 3c 44 be
       0.0037994625 -0.16510996 -0.14314942 -0.1916353
000320 70 a9 cb bb a9 5a 33 be 07 14 fc bd cf ef 12 3e
       -0.006215267 -0.17515053 -0.123085074 0.14349292
000330 18 c9 8e 3d a5 35 0d bd a6 96 03 be 01 28 c2 3d
       0.06971949 -0.034474988 -0.12850437 0.094802864
000340 b9 22 d9 bc 76 63 6e 3d ca c2 41 3e 31 b8 40 be
       -0.026505815 0.058200322 0.18921962 -0.18820263
000350 4f 46 5d 3d 21 a9 79 3d a3 f5 c3 3d f8 d1 75 bd
       0.05402213 0.06095231 0.09568336 -0.060014695
000360 e8 65 0f 3e e4 60 2c 3e 54 8d 89 bd 51 3c 98 bc
       0.14003718 0.16833836 -0.06716409 -0.018583449
000370 de a1 f4 3d 37 12 5e 3e d5 e2 20 3e 95 ad 5c be
       0.11944936 0.21686636 0.1571153 -0.21550591
000380 30 2c f7 3d 31 29 2e 3c 8d 49 20 3e 28 d8 7a 3e
       0.12068975 0.010629938 0.15653057 0.2449652
000390 d2 11 f8 bd d1 ae bc 3c 72 e9 c9 3e c8 0a 21 3d
       -0.12112774 0.023032578 0.39435917 0.039316922
0003a0 ab e0 3f be 8d 1e eb bc 65 5d 04 be 45 ea 62 be
       -0.18738048 -0.028701091 -0.12926252 -0.22159679
0003b0 03 f5 88 3c 0b 4f 07 bd 00 0f 8d 3c c9 2e c3 bd
       0.016718393 -0.033034366 0.017219067 -0.09530408
0003c0 6f 25 22 be 2a 85 3e 3d 4f 34 03 bd df 81 0e be
       -0.15834592 0.046513714 -0.032032307 -0.1391673
0003d0 71 30 2f 3e 34 0f 3e 3d 4d 15 d5 bc 28 5a e9 3d
       0.17108323 0.046401218 -0.026011134 0.11394149
0003e0 07 fd 75 bd 44 d9 81 bd cf 6a f7 bd b5 67 c3 3b
       -0.06005576 -0.06340268 -0.12080919 0.0059632906
0003f0 e9 91 d9 be 38 f0 a7 3d 1e 4b c3 bd 78 28 99 3c
       -0.42494133 0.08200115 -0.09535812 0.018696055

fc2.bias f4 [64]
000000 83 15 ca bb 1b cd 40 bd 2e f0 80 3d cc 5b 79 3d
       -0.006167115 -0.047070604 0.06295811 0.06087856
000010 55 ca a6 3e 82 1a 3a be 66 f1 3f 3c 4a ab 93 3d
       0.32576242 -0.18174174 0.011715269 0.07210405
000020 f7 c0 5f 3e 97 ab be 3e 15 da b8 bd 30 e7 4c 3e
       0.21850954 0.37240288 -0.09025971 0.20010066
000030 3e 35 65 3d 8b 4e 89 bd ff dc c7 bc f4 07 cd 3c
       0.05595898 -0.06704434 -0.024397371 0.025028206
000040 cd 85 e6 3d 10 89 98 bd 46 58 da bd 5c 30 0c 3e
       0.11255989 -0.074480176 -0.10661368 0.13690323
000050 61 ae 85 3e 49 50 e4 3e 06 87 1c be 7b 9c cb bd
       0.26109603 0.44592503 -0.15285882 -0.09941956
000060 5c 5c 77 bd ce f3 25 be 34 89 3f 3d 52 ca 26 bd
       -0.060390815 -0.16206285 0.046761706 -0.04072029
000070 4f 32 99 bd f3 9b 9d 3d 7d 59 9f 3d 4e 1e 6a bc
       -0.07480299 0.076957606 0.077807404 -0.014289452
000080 af e1 06 bd 38 e9 73 3c 92 44 13 ba 91 3f c6 bd
       -0.032930072 0.014887147 -0.0005617823 -0.09680093
000090 20 29 5f bd cb 81 da bd 7d e1 ef 3b 97 a7 1b bd
       -0.05448258 -0.10669287 0.0073205815 -0.038001623
0000a0 40 0a 96 bd f4 de d2 3e 24 d3 a7 3e 4e 43 de bc
       -0.07326174 0.41185725 0.32778275 -0.027131703
0000b0 cd a9 9e 3d 85 3d d3 bd ae 81 7f 3e b4 23 d9 bd
       0.07747231 -0.10314468 0.24951813 -0.10602513
0000c0 8d 53 a3 3d d2 d0 1d bd f8 0f 8d bd 6e 13 bb 3e
       0.079749204 -0.038529225 -0.068878114 0.3653826
0000d0 86 bd 83 3d 8a 01 d3 bd 20 ee 3c 3e 4c 6f a3 bd
       0.06432633 -0.10303028 0.18450212 -0.079802126
0000e0 69 2c 25 be ea ed 10 be d0 fa fe 3c 62 ce 45 bc
       -0.16130222 -0.14153257 0.031125456 -0.012073131
0000f0 c4 51 ab 3d 5a 80 85 3e d5 1e c1 3c 46 01 82 b8
       0.08365205 0.26074487 0.023574272 -6.19912e-05

fc3.weight f4 [4, 64]
000000 87 ce b4 3e 33 14 e1 3d dc cf a0 3e 31 05 4f bb
       0.35313818 0.10990181 0.31408584 -0.0031588788
000010 ae c8 44 3e 14 a1 c8 bd be 8f 8e 3e e9 a2 af be
       0.19217178 -0.09796348 0.27844042 -0.34303978
000020 33 4c 1a 3e 80 4f f5 3d 12 3b a0 bd 6f 6c 88 3e
       0.1506813 0.11978054 -0.07823767 0.26645228
000030 02 d8 af 3e cd b5 e4 3d b9 a8 c3 3d 6c 55 be bd
       0.34344488 0.11167488 0.09553666 -0.09293637
000040 a8 97 01 3e 0b c5 5f be 17 f7 2e be ed a3 0e 3e
       0.12655509 -0.2185251 -0.17086445 0.1392972
000050 ba eb 91 3d df b4 10 3e 74 d1 38 be 63 a2 52 be
       0.071250394 0.14131497 -0.1804865 -0.20569758
000060 05 e0 d8 3d df 7c 8e be 53 72 9b be 6d 35 02 3e
       0.10589603 -0.27829644 -0.3036066 0.12715693
000070 5e 4f e2 3e 6d c2 91 3c c8 18 eb be 4f 5f 76 3d
       0.44201177 0.017792905 -0.45917344 0.060149487
000080 8b 45 6f 3d 58 36 87 3e 69 de 99 3d ad 88 2f b9
       0.05841593 0.26408648 0.075131245 -0.00016740216
000090 a7 ff 4f 3e 6c 7f 49 be 32 6b 22 3e 96 85 a6 3e
       0.20312367 -0.19677514 0.15861204 0.32523793
0000a0 7c 21 91 3e a3 1c 2c 3e 79 ef 06 3e 23 25 9b be
       0.2834586 0.16807799 0.13177289 -0.3030177
0000b0 9a 96 b0 3e ba dc e9 3d 87 0f 48 3e 7e 22 86 3e
       0.344899 0.114190534 0.19537173 0.2619819
0000c0 df 4f da bd c2 ae 42 3e d1 9b 2e 3e a2 1c 00 3e
       -0.106597655 0.19011977 0.17051627 0.12510923
0000d0 92 dd 88 3e eb 73 dd bd d3 63 a2 3d 57 6e 84 bd
       0.26731545 -0.10813125 0.07929196 -0.06466358
0000e0 30 82 cc bd 66 93 d0 be fb ba d8 bd 15 a1 0e 3e
       -0.09985769 -0.40737456 -0.10582539 0.13928635
0000f0 0b 2a 1b be bc f4 32 3e 10 8b ba 3c 97 dc bb 3e
       -0.15152757 0.17476171 0.022771388 0.36691734
000100 96 d8 ac 3e ff 57 3e bd 5b f5 a4 3e 93 39 98 3d
       0.33758992 -0.04647064 0.3221844 0.074328564
000110 82 29 02 3e fe bf cf bd 6b c4 42 3e 9f c4 4c be
       0.12711146 -0.101440415 0.1902024 -0.1999688
000120 7d 89 be 3d 09 dc 1b 3e 1e 31 d8 3c 91 e5 98 3e
       0.093035676 0.15220656 0.026390608 0.29862645
000130 a6 1b af 3e ee 7b aa 3d c5 0a 45 3d 74 3a 8e 3c
       0.34200782 0.08324419 0.048105974 0.017361857
000140 2d 7a 0a 3e 7e f8 7d 3e 0e 59 5a be b9 38 06 3e
       0.13523169 0.24801823 -0.21323034 0.13107575
000150 ea 6b f2 3d 25 6a 67 3e 9e a8 51 be 15 e0 95 bd
       0.11836989 0.22599085 -0.20474479 -0.07318131
000160 1b 4c 2a 3e c8 f2 57 be b5 38 c0 bd 6f 16 b4 3e
       0.16630594 -0.21088707 -0.09385816 0.35173365
000170 81 4b 50 3d 0b 9f 24 3d 2e c9 e0 bd 4d a6 28 3e
       0.050853256 0.040190738 -0.10975872 0.16469689
000180 7d 5b 8e 3d fe e9 91 3e e3 a4 2c 3e 24 99 73 bd
       0.06951044 0.28498834 0.16859774 -0.05947222
000190 78 a0 4c 3e 24 d7 81 be 9f e3 0a 3e 7f 93 af 3e
       0.19983089 -0.25359452 0.13563393 0.34292218
0001a0 21 06 bb 3e c3 70 0e 3e 08 92 ae 3d 7b a0 cd 3e
       0.36528113 0.13910203 0.08523947 0.401615
0001b0 ff bc cd 3e 93 d8 11 be 3d 96 2f 3e bd ed 0b 3f
       0.40183255 -0.14242773 0.17147155 0.54659635
0001c0 9a 5e 3f bd 17 69 14 3e 2f 78 62 3e 95 f5 1b 3d
       -0.04672108 0.14493214 0.22116159 0.038076002
0001d0 35 92 20 3e 65 71 7e bc 42 93 21 3e 47 fe 3f bd
       0.15680774 -0.015529965 0.1577883 -0.046873357
0001e0 51 00 69 be f3 89 b9 bb f8 91 d8 bd c9 9d 88 3d
       -0.22754027 -0.005662197 -0.10574716 0.0667072
0001f0 8b 14 9d bc 52 bc 6e 3d 03 34 fb bd 7f 3c a4 3e
       -0.019174835 0.058285065 -0.1226578 0.32077405
000200 0d e4 51 3d 39 a6 98 3e 59 3c 26 3e 94 a6 09 3e
       0.051242877 0.29814318 0.16233958 0.13442451
000210 6f 6f 3b 3e 7c 15 36 3e d8 2a 4a 3e f8 8b 08 be
       0.18304227 0.17781633 0.19742906 -0.13334644
000220 08 5e f9 3d 05 13 db 3d d5 87 d1 bd 4d ba 0a 3f
       0.12176138 0.10696987 -0.10230986 0.5419052
000230 fb 4c e6 3e ae e3 ed be cd 4e da 3c 84 59 26 3e
       0.44980606 -0.46462768 0.026648903 0.16245085
000240 1d 4b 73 3e e3 a2 d0 bc 4d f6 23 be 2a 40 90 3d
       0.23759122 -0.025468295 -0.16011925 0.07043488
000250 ff 7e b4 3d 2e 24 51 3e 07 65 ea bd 74 13 01 3e
       0.08813285 0.20423958 -0.11445051 0.12605077
000260 b3 9d e6 3e 10 b0 50 be aa 48 13 be f1 22 b8 be
       0.4504219 -0.20379663 -0.14383188 -0.35964158
000270 e1 bb 25 3e d0 28 4c 3d 4c 83 89 be 54 39 54 3c
       0.16184951 0.04984361 -0.26857984 0.012953121
000280 0a e1 80 be 72 52 0c 3e ab ca 9f 3e 2c 6e ae 3d
       -0.2517169 0.13703325 0.3120931 0.08517107
000290 df a2 b3 3e b0 eb 81 be 86 2a 4e bd 25 22 ac 3d
       0.35085198 -0.25375128 -0.050333522 0.0840495
0002a0 0b 41 f7 bc fc dc 1e 3e 4a d1 20 3e be 0b 96 be
       -0.030182382 0.15513986 0.15704837 -0.29305834
0002b0 ce 70 54 3e f0 74 c7 3d 4b ec 18 3e 3d 13 14 3f
       0.20746157 0.09739101 0.14933889 0.57841855
0002c0 69 20 07 3e 89 15 1c 3e 93 14 0e 3e 6f d9 53 3e
       0.13195957 0.1524259 0.13875036 0.20688413
0002d0 19 74 32 3d a7 e0 15 3e a0 27 01 3e 02 9c 7a 3d
       0.04356775 0.1463648 0.12612772 0.061183937
0002e0 7b 83 84 be 9d 85 80 be 8e 97 2f 3e 03 b5 0a 3d
       -0.25881562 -0.2510194 0.17147657 0.033864032
0002f0 ba 50 00 bf ab 1f 1a 3e c7 aa 9e be e0 fe 40 3e
       -0.5012318 0.15051143 -0.30989668 0.18847227
000300 c7 9c ef 3d 47 2f ae 3e c7 c1 32 3e ee 08 10 be
       0.11699825 0.34020445 0.17456733 -0.14065906
000310 df df 2f 3d d1 46 d3 bd 68 2f 36 3e 14 73 b9 bd
       0.04293811 -0.103162415 0.17791522 -0.090551525
000320 43 22 5c 3e 08 f9 34 3e 2d 0e e3 3d 75 dd 97 bd
       0.21497445 0.17673123 0.11086688 -0.074152865
000330 18 0b 86 3e 2e 3c 00 3e b1 bc 75 3e b9 ae 82 3c
       0.2618034 0.12522957 0.23997761 0.015952455
000340 95 06 84 3e 72 8f e8 bd e6 da 29 be 1c 0a 1b 3e
       0.25786272 -0.11355485 -0.1658741 0.15140575
000350 8e 0c 97 3d aa 89 6d 3e 21 db 3c be 88 ec 20 3d
       0.073754415 0.23197046 -0.18442966 0.039288074
000360 5a a5 6d 3e 88 a1 cf be 3b a1 ef bd 80 35 07 3f
       0.23207608 -0.40552926 -0.11700674 0.5281601
000370 d9 be c7 3e 1c cd 34 be b4 61 72 be 65 55 0f 3e
       0.39012793 -0.17656368 -0.23670083 0.13997419
000380 09 0b d7 bc 76 18 03 3f 68 e3 6f 3c 03 80 7e 3c
       -0.02625038 0.512092 0.01464162 0.01553345
000390 93 d6 bf 3d 72 90 07 be ff 98 4a 3e 7b c5 94 3e
       0.09367099 -0.13238695 0.19784926 0.29056916
0003a0 20 9a 4a be dc 60 19 3e a7 d5 07 3e ad 6a cc be
       -0.19785357 0.14978355 0.13265096 -0.39925137
0003b0 9f 47 f9 3e fe 12 43 bd 6e 24 02 3e 59 86 34 be
       0.48687455 -0.047625534 0.1270921 -0.17629375
0003c0 e9 35 27 bc 39 a0 1e 3d 31 7e ea 3e 70 38 16 3e
       -0.010205724 0.03872702 0.457994 0.14669967
0003d0 df ec 06 3e 92 71 3e be 5d 4d 4a 3e 0e 9e 61 3e
       0.13176297 -0.18598011 0.19756074 0.2203295
0003e0 15 24 8f be 7c f7 57 3c a6 b5 bf be a4 78 82 3d
       -0.27957216 0.0131815635 -0.37443274 0.063706666
0003f0 a5 b6 18 be 0e f8 d8 3d 8d 50 bd bd 30 07 c6 3e
       -0.14913423 0.10594188 -0.092438795 0.3867736

fc3.bias f4 [4]
000000 53 b2 96 3e ec bd 6d 3e 17 f9 01 3e db 2e 1c 3e
       0.29432926 0.2321698 0.12692676 0.15252249
